latest.pth (torch, 3389 bytes, 4 tensors)

model.0.weight f4 [3, 8, 3, 3]
0	0x3c9f421a	0.0194407
1	0x3deee0ce	0.11663972
2	0x3d524618	0.051336378
3	0x3bf71ab1	0.0075410237
4	0xbdb53b3b	-0.08849188
5	0xbd1deeba	-0.038557746
6	0x3db76cd7	0.089563064
7	0xbc49c4f0	-0.01231502
8	0xbde46a32	-0.11153068
9	0xbbd84351	-0.0065998216
10	0xbd88ebab	-0.06685575
11	0xbdbbaed6	-0.09164207
12	0xbd9d0120	-0.0766623
13	0xbe9d4c33	-0.30722198
14	0xbe877728	-0.26458097
15	0xbda4d014	-0.080475
16	0xbe4a5681	-0.19759561
17	0xbdce8e79	-0.10085768
18	0xbd5db3e1	-0.054126624
19	0xbd62e1a4	-0.05539097
20	0xbca5f984	-0.02026058
21	0x3baa548f	0.0051980685
22	0x3e2280ca	0.15869442
23	0x3dcf33bb	0.10117289
24	0x3b73264f	0.003710169
25	0xbd062b0a	-0.03275589
26	0x3e5cee20	0.21575212
27	0xbdfa462d	-0.12220416
28	0x3c5f61ff	0.013634204
29	0xbc1d1eb3	-0.009589839
30	0xbd938fa0	-0.07205129
31	0xbd3f1b60	-0.046656966
32	0xbdf5312c	-0.119722694
33	0xbd9f907c	-0.0779123
34	0x3dabd34f	0.08389913
35	0x3ce38a05	0.027775774
36	0xbdefb1d6	-0.117038414
37	0x3c8dc052	0.01730362
38	0xbe355255	-0.17707188
39	0xbe79c771	-0.24392487
40	0xbe34fd7d	-0.17674823
41	0xbe16cfc3	-0.14727692
42	0xbcc12ecf	-0.02358189
43	0xbe5f7e97	-0.21825634
44	0xbe100a02	-0.14066318
45	0xbd1e1d9c	-0.038602456
46	0xbd6e1a19	-0.058130357
47	0x3e0346a8	0.12819922
48	0x3cdd17eb	0.026988944
49	0xbd0a9ca5	-0.033840794
50	0x3cc36ba0	0.02385503
51	0xbdcfc79a	-0.10145493
52	0xbcbddce3	-0.023176616
53	0x3d6f3f57	0.058410015
54	0x3cf7607c	0.030197375
55	0xbd1eb0c9	-0.038742814
56	0xbd626e24	-0.05528082
57	0xbcf8fc34	-0.030393697
58	0xbdd2c8cf	-0.102922074
59	0xbe4aee56	-0.1981748
60	0xbda50d96	-0.08059232
61	0xbe12f11e	-0.14349791
62	0xbde1b92c	-0.11021647
63	0xbdc918d4	-0.09819189
64	0xbb17762f	-0.0023111214
65	0xbd42d301	-0.04756451
66	0xbb679cd3	-0.0035341277
67	0x3d1a7342	0.037707575
68	0x3e122fa9	0.14275993
69	0xbdabb867	-0.08384781
70	0x3dd1e40e	0.10248576
71	0xbd0b9334	-0.03407593
72	0x3c6d8e13	0.014499205
73	0x3d52a62a	0.051427998
74	0xbd090efd	-0.03346156
75	0xbd6eb5d0	-0.05827886
76	0xbdff107c	-0.12454316
77	0xbdbe6f37	-0.09298556
78	0xbc1b25d4	-0.009469468
79	0xbe5174e0	-0.2045474
80	0xbe4bf08c	-0.1991598
81	0x3e539824	0.20663506
82	0x3b8a7457	0.0042252946
83	0x3e534b49	0.20634188
84	0xbd9d3c7d	-0.07677553
85	0xbe24109c	-0.16021961
86	0xbdf53dba	-0.11974664
87	0x3be4fec9	0.0069883806
88	0x3c875fe2	0.016525213
89	0x3b74e99c	0.0037370687
90	0xbdbf37f8	-0.09336847
91	0x3d93b618	0.07212466
92	0x3dbe8d1a	0.09304257
93	0xbc958b28	-0.018254831
94	0x3dd63e72	0.10461129
95	0x3e810c51	0.2520471
96	0xbdeac22f	-0.11462819
97	0xbd0513d6	-0.03248962
98	0x3d271010	0.040786803
99	0x3dd369b9	0.10322899
100	0x3d998342	0.074957386
101	0xbd488997	-0.04895934
102	0xbcbbe98e	-0.022938516
103	0x3e1f44cc	0.15553588
104	0x3e7916f5	0.24325164
105	0x3dcf2ae1	0.101156004
106	0x3e8b94ff	0.27262112
107	0x3e2fc5cb	0.17165296
108	0x3caf8d8d	0.021429801
109	0x3d6e14d3	0.05812533
110	0x3d6fadf9	0.058515523
111	0x3d820d64	0.0635021
112	0xbdb2d56f	-0.087321155
113	0xbbe7ad63	-0.00707023
114	0x3cb07a3f	0.021542666
115	0x3de5c241	0.112186916
116	0x3c09c66a	0.008409122
117	0xbd95ab0c	-0.07308015
118	0xbe1c6fee	-0.15277073
119	0x3d8bf76d	0.06834302
120	0xbe47fc73	-0.19529895
121	0xbe3b83e3	-0.1831203
122	0xbc0b72bc	-0.0085112415
123	0xbe139bf6	-0.14414963
124	0xbe462e9a	-0.19353715
125	0xbe263bb4	-0.16233712
126	0xbdc1d802	-0.09465028
127	0xbdfd54f4	-0.12369719
128	0xbd8a40fe	-0.067506775
129	0xbdf8d867	-0.121506505
130	0xbd738244	-0.059450403
131	0xbd1bc202	-0.038026817
132	0x3d614fb1	0.05500764
133	0x3d2d8414	0.042362288
134	0xbd388f34	-0.045058444
135	0xbdd1f518	-0.10251826
136	0x3d365e8a	0.044523753
137	0x3e0210ba	0.12701693
138	0x3d69600e	0.05697637
139	0x3e6b9e5a	0.23009625
140	0x3cff75ad	0.031184042
141	0x3e4d9a57	0.20078407
142	0x3e81bd55	0.2533976
143	0x3daab75e	0.08335756
144	0x3d18732c	0.03721921
145	0xbc864045	-0.016388068
146	0xbc83c20e	-0.016083743
147	0xbda9012b	-0.08252176
148	0xbe930ceb	-0.28720793
149	0xbe848171	-0.25880006
150	0xbd837bbd	-0.064200856
151	0xbde13091	-0.109955914
152	0xbe263cf8	-0.16234195
153	0x3d90784c	0.07054195
154	0xbc893341	-0.016748073
155	0xbdb1b62e	-0.08677326
156	0xbe229249	-0.15876116
157	0xbeae55d6	-0.34049863
158	0xbe61c02e	-0.22045967
159	0xbcb53ce5	-0.022123763
160	0xbe25b78a	-0.16183296
161	0xbd98b8a1	-0.0745709
162	0x3d4acefd	0.049513806
163	0xba387ea1	-0.0007037912
164	0xbd9fc315	-0.07800881
165	0xbd51b2cc	-0.051195905
166	0xbc89f19f	-0.016838847
167	0x3e1c297f	0.15250205
168	0xbe058e7a	-0.13042632
169	0xbc522ffe	-0.012828825
170	0x3dfc8042	0.12329151
171	0xbd80f49a	-0.06296654
172	0xbe6a42cf	-0.22877048
173	0xbdd9e152	-0.106386796
174	0xbdf40092	-0.11914171
175	0xbdcc1364	-0.09964636
176	0xbcc6ec98	-0.024282739
177	0xbd5f0503	-0.05444814
178	0xbd321c7a	-0.04348419
179	0x3bd9f887	0.006651941
180	0x3dea7b82	0.114493385
181	0x3e45df6f	0.19323514
182	0x3e2db6eb	0.16964309
183	0x3dca206e	0.09869467
184	0x3d3ad4e7	0.045613196
185	0x3e0dbfc6	0.13842687
186	0x3c1684e7	0.00918696
187	0x3df4daf7	0.11955827
188	0x3dd1b70b	0.10239991
189	0x3d3d61ec	0.046235964
190	0x3caa8f71	0.020820351
191	0x3e20729a	0.15668717
192	0x3c2ec274	0.010666478
193	0xbd96e73e	-0.07368325
194	0x3e0f5850	0.13998532
195	0xbd8ca4b6	-0.068673536
196	0xbd6c24c7	-0.05765226
197	0x3b892749	0.0041855914
198	0xbcdd57d6	-0.027019423
199	0x392ed9c6	0.0001667506
200	0x3e12e79a	0.14346161
201	0x3c1ae173	0.009453165
202	0x3dc2f373	0.095190905
203	0x3d342881	0.04398394
204	0x3e092837	0.13394247
205	0x3d8338f9	0.06407351
206	0xbb80579e	-0.003916695
207	0xbdea9eb4	-0.114560515
208	0xbd975a50	-0.073902726
209	0xbd516b4a	-0.05112771
210	0xbc08d99c	-0.008352663
211	0x3dffd66e	0.12492071
212	0xbc88ab9d	-0.016683394
213	0x3b736353	0.003713806
214	0x3e18e700	0.1493187
215	0xbd727d43	-0.05920149

model.0.bias f4 [8]
0	0xbcbdcfb1	-0.023170324
1	0x3bd6ecc9	0.0065589887
2	0x3ce35793	0.02775172
3	0x3bb3c71c	0.005486382
4	0x3cadc543	0.021212226
5	0xbd0fea96	-0.035135828
6	0xbd7d7115	-0.06187542
7	0xbe0f405d	-0.13989396

model.1.weight f4 [8, 3, 3, 3]
0	0x3db4d023	0.088287614
1	0xbe42140c	-0.1895296
2	0x3e0a772a	0.1352202
3	0x3d01c24f	0.031679448
4	0xbdb6d7d9	-0.089278884
5	0xbd655e95	-0.055998404
6	0xbc98dcb2	-0.018659923
7	0xbde0324e	-0.10947095
8	0x3df7e086	0.12103371
9	0xbe2a8d0b	-0.16655366
10	0xbdb82970	-0.089922786
11	0xbe3442fa	-0.17603675
12	0xbe6aa4df	-0.22914456
13	0xbe40c641	-0.18825628
14	0xbcb6fe27	-0.022337986
15	0x3e20abc3	0.15690522
16	0xbdb57284	-0.08859733
17	0xbd0f7257	-0.035021152
18	0xbe187fd8	-0.14892519
19	0xbe84fef5	-0.25975767
20	0xbdcf38cb	-0.10118254
21	0xbe9426fc	-0.28935993
22	0xbe053d24	-0.13011605
23	0xbc93e070	-0.018051356
24	0x3dc1832a	0.09448846
25	0xbe97155f	-0.29508492
26	0xbda166b4	-0.07880917
27	0xba1bc19b	-0.000594163
28	0xbe1954f7	-0.14973818
29	0xbd98ed19	-0.07467098
30	0xbe01def3	-0.12682705
31	0xbede36ec	-0.43401277
32	0xbde66cbb	-0.112512074
33	0xbcde5a7b	-0.027142754
34	0xbe9a791e	-0.3017053
35	0xbe4d1310	-0.20026803
36	0xbc85539a	-0.016275216
37	0xbcc4a598	-0.024004743
38	0xbddd58c0	-0.10807943
39	0xbbde6ef3	-0.0067881285
40	0xbdf09462	-0.11747052
41	0x3cd90aa9	0.026494341
42	0x3d5dd454	0.05415757
43	0xbdef77dd	-0.11692784
44	0x3da63c22	0.08116938
45	0x3d380f4e	0.04493647
46	0xbd1cebeb	-0.038310926
47	0xbd3ca2a5	-0.046053547
48	0x3d0ee8c2	0.034889944
49	0xbed76207	-0.42066976
50	0xbe02d265	-0.12775572
51	0xbdff6911	-0.12471212
52	0xbeb54ddc	-0.35410964
53	0xbe785123	-0.24249701
54	0x3e4f2d2d	0.20232077
55	0x3d705b31	0.058680717
56	0xbdccced3	-0.10000386
57	0x3e622d6a	0.22087637
58	0x3e4dbaa2	0.20090726
59	0x3d9fe7ca	0.07807882
60	0x3dd5dcc8	0.10442501
61	0xbdc0fe5e	-0.09423517
62	0xbe1c4232	-0.15259627
63	0x3dffaa84	0.12483695
64	0xbcdd9904	-0.027050503
65	0xbe3b6358	-0.18299615
66	0x3d563832	0.052299686
67	0x3d3bd746	0.045859598
68	0x3dec195f	0.11528277
69	0x3e161c4c	0.14659232
70	0x3e757a20	0.23972368
71	0x3db53522	0.08848025
72	0x3e2b29c3	0.1671515
73	0xbde85c12	-0.11345686
74	0xbe6468c4	-0.2230559
75	0x3e2dfd8d	0.16991253
76	0x3daa62cf	0.083196275
77	0x3deaaf7e	0.11459254
78	0x3cb80b75	0.0224664
79	0x3d238fcd	0.03993206
80	0xbe105cf3	-0.14097957
81	0x3e23f97e	0.16013142
82	0x3dec16e0	0.115278006
83	0x3d513fdf	0.051086303
84	0xbd794f9a	-0.06086693
85	0xbdea97fe	-0.114547715
86	0x3e1083c3	0.14112763
87	0xbe091d8c	-0.13390177
88	0xbe0ba573	-0.13637333
89	0xbdc22683	-0.09480002
90	0x3e52d6a6	0.20589694
91	0x3e705aec	0.23472184
92	0x3e510377	0.20411478
93	0x3c4faba3	0.012675199
94	0x3e8ac265	0.27101436
95	0x3de2e533	0.110788725
96	0x3e4a20ff	0.1973915
97	0x3d9d703f	0.07687425
98	0xbc377840	-0.011198103
99	0xbe2a41c0	-0.16626644
100	0x3e04dcc5	0.12974842
101	0x3da9a57a	0.08283515
102	0xbc36ed23	-0.011164936
103	0xbe0a14b8	-0.13484466
104	0xbd8ba197	-0.0681793
105	0x3cfdfa13	0.031003034
106	0xbd889f62	-0.06671025
107	0xbe4c711e	-0.19965026
108	0x3cb48c15	0.022039453
109	0xbe4640dd	-0.19360681
110	0xbd79c308	-0.060977012
111	0xbe57a464	-0.21058804
112	0xbea7c01a	-0.3276375
113	0xbe0ecc54	-0.13945132
114	0xbe2c1eb3	-0.16808586
115	0xbdd7b2fa	-0.10532184
116	0xbe33268f	-0.17495178
117	0x3c05b6bc	0.008161243
118	0x3e072668	0.13198245
119	0x3ddbccc5	0.10732416
120	0xbd079f0a	-0.033110656
121	0x3bafeb48	0.005368624
122	0xbcc4d937	-0.024029357
123	0x3d4082c5	0.04699971
124	0x3d1dcb22	0.0385238
125	0xbe26cac8	-0.16288292
126	0xbdd5d22a	-0.10440476
127	0x3df74d3d	0.12075279
128	0xbcf19b13	-0.02949289
129	0x3d3a7b5a	0.045527793
130	0x3d828438	0.06372875
131	0x3e929840	0.28631783
132	0x3d837389	0.06418521
133	0x3e4d8e71	0.20073868
134	0x3e19e31b	0.1502804
135	0x3e09ffbc	0.13476461
136	0x3d9625ce	0.073314294
137	0x3dc1d6f5	0.09464828
138	0x3da6540d	0.081215
139	0xbe190d46	-0.1494647
140	0xbdfb12f0	-0.122594714
141	0x3e625be1	0.22105362
142	0xbdb38823	-0.087662004
143	0x3d7b9a9b	0.06142674
144	0x3e1724ec	0.14760178
145	0xbe0ea528	-0.1393019
146	0xbdcc33c7	-0.09970813
147	0xbe2b14b0	-0.1670711
148	0xbdbfb392	-0.09360422
149	0xbe8e92f4	-0.2784649
150	0x3e3499b0	0.17636752
151	0x3c999d7a	0.018751848
152	0xbe36f1b1	-0.17865635
153	0xbdefd995	-0.11711422
154	0xbdd69596	-0.1047775
155	0xbd1e57ef	-0.03865808
156	0x3e32303e	0.17401215
157	0xbd9467ce	-0.07246362
158	0x3d13698a	0.03598932
159	0x3e8ad405	0.27114883
160	0x3e5b1c02	0.21397403
161	0x3d8be5cc	0.0683094
162	0x3c69aafc	0.014261957
163	0xbe2338be	-0.15939614
164	0x3e353561	0.17696144
165	0x3db6d55e	0.08927415
166	0xbdddc27a	-0.10828109
167	0xbe76fa7a	-0.24118987
168	0xbe247f88	-0.16064274
169	0xbdea18b0	-0.1143049
170	0xbe1e70a6	-0.1547266
171	0x39b122cc	0.00033785996
172	0x3da3f69f	0.080060236
173	0xbcb1ffb1	-0.021728368
174	0x3c939ac9	0.018018143
175	0xbe9178df	-0.2841253
176	0x3daf1da5	0.08550576
177	0x3cdad787	0.0267141
178	0xbd585fb8	-0.05282566
179	0x3c75cb26	0.015002048
180	0x3e11ec3a	0.1425027
181	0x3e1d4f76	0.15362343
182	0x3e78cd5e	0.24297091
183	0x3dc28afc	0.094991654
184	0xbd8e221f	-0.06940102
185	0x3e0b9121	0.13629581
186	0x3e03903c	0.1284799
187	0x3e4d320d	0.20038624
188	0xbdeed804	-0.116622955
189	0xbc2b6487	-0.010460979
190	0x3db17441	0.08664752
191	0x3e2d2523	0.16908698
192	0xbd070eb6	-0.032973014
193	0xbd9604aa	-0.07325108
194	0x3e1e177b	0.15438645
195	0xbdc0f6f2	-0.09422101
196	0xbc8764a0	-0.016527474
197	0x3e564fbc	0.20928854
198	0xbd01c05c	-0.03167759
199	0x3e36cc84	0.17851454
200	0x3e604955	0.21902974
201	0x3e5514ee	0.20808765
202	0x3e9d3093	0.30701122
203	0x3e377bbd	0.17918296
204	0x3d718e7e	0.05897378
205	0x3e5eb7dc	0.21749824
206	0x38914fd3	6.929007e-05
207	0xbd5c0f5b	-0.05372558
208	0xbdde8224	-0.10864666
209	0x3e3d6b8b	0.18498056
210	0x3de859fc	0.11345288
211	0xbd24b6dc	-0.04021345
212	0x3e3eff41	0.18652059
213	0x3e10db72	0.14146212
214	0x3dfb8f60	0.12283206
215	0xbe1ebff8	-0.15502918

model.1.bias f4 [3]
0	0x3d29ad36	0.041424952
1	0x3ddc7795	0.10764996
2	0x3daa9894	0.08329883
